…
ear(84, 10)\n\n    # Set the flow of data through the network for the forward pass\n    # x represents the data\n    def forward(self, x):\n        # F.relu is the rectified-linear activation function\n        x = self.pool(F.relu(self.conv1(x)))\n        x = self.pool(F.relu(self.conv2(x)))\n        # flatten all dimensions except the batch dimension\n        x = torch.flatten(x, 1)\n        x = F.relu(self.fc1(x))\n        x = F.relu(self.fc2(x))\n        x = self.fc3(x)\n        return x\n\nLet’s create an instance of Net and print its structure:\n\nnet = Net()\nprint(net)\n\nNet(\n  (conv1): Conv2d(3, 6, kernel_size=(5, 5), stride=(1, 1))\n  (pool): MaxPool2d(kernel_size=2, stride=2, padding=0, dilation=1, ceil_mode=False)\n  (conv2): Conv2d(6, 16, kernel_size=(5, 5), stride=(1, 1))\n  (fc1): Linear(in_features=400, out_features=120, bias=True)\n  (fc2): Linear(in_features=120, out_features=84, bias=True)\n  (fc3): Linear(in_features=84, out_features=10, bias=True)\n)\n\n\n\n\nLoss function and optimizer\nWe need to chose a loss function that will be used to calculate the gradients through backpropagation as well as an optimizer to do the gradient descent.\nSGD with momentum has proved a very efficient optimizing technique and is widely used.\n\nimport torch.optim as optim\n\ncriterion = nn.CrossEntropyLoss()\noptimizer = optim.SGD(net.parameters(), lr=0.001, momentum=0.9)",
…
 x):\n        # Max pooling over a (2, 2) window\n        # F.relu is the rectified-linear activation function\n        x = F.max_pool2d(F.relu(self.conv1(x)), (2, 2))\n        # If the size is a square, you can specify with a single number\n        x = F.max_pool2d(F.relu(self.conv2(x)), 2)\n        # flatten all dimensions except the batch dimension\n        x = torch.flatten(x, 1)\n        x = F.relu(self.fc1(x))\n        x = F.relu(self.fc2(x))\n        x = self.fc3(x)\n        return x\n\nLet’s create an instance of Net and print its structure:\n\nnet = Net()\nprint(net)\n\nNet(\n  (conv1): Conv2d(1, 6, kernel_size=(5, 5), stride=(1, 1))\n  (conv2): Conv2d(6, 16, kernel_size=(5, 5), stride=(1, 1))\n  (fc1): Linear(in_features=400, out_features=120, bias=True)\n  (fc2): Linear(in_features=120, out_features=84, bias=True)\n  (fc3): Linear(in_features=84, out_features=10, bias=True)\n)\n\n\n\nparams = list(net.parameters())\nprint(len(params))\nprint(params[0].size())  # conv1's .weight\n\n10\ntorch.Size([6, 1, 5, 5])"
  },
  {
    "objectID": "ai/pt/pt_intro_slides.html#ml-allows-to-achieve-previously-impossible-tasks",
    "href": "ai/pt/pt_intro_slides.html#ml-allows-to-achieve-previously-impossible-tasks",
    "title": "Introduction to machine learning",
…
